…
---tokenizer--- Qwen2Tokenizer(name_or_path='/home/dalhxwlyjsuo/criait_tansy/project/LLaVA-1/LLaVA-Med-1.0.0/Qwen2-7B-Instruct', vocab_size=151643, model_max_length=131072, is_fast=False, padding_side='right', truncation_side='right', special_tokens={'eos_token': '<|im_end|>', 'pad_token': '<|endoftext|>', 'additional_special_tokens': ['<|im_start|>', '<|im_end|>']}, clean_up_tokenization_spaces=False, added_tokens_decoder={
	151643: AddedToken("<|endoftext|>", rstrip=False, lstrip=False, single_word=False, normalized=False, special=True),
	151644: AddedToken("<|im_start|>", rstrip=False, lstrip=False, single_word=False, normalized=False, special=True),
	151645: AddedToken("<|im_end|>", rstrip=False, lstrip=False, single_word=False, normalized=False, special=True),
}
)
---model--- LlavaQwen2ForCausalLM(
  (model): LlavaQwen2Model(
    (embed_tokens): Embedding(152064, 3584)
    (layers): ModuleList(
      (0-27): 28 x Qwen2DecoderLayer(
        (self_attn): Qwen2Attention(
          (q_proj): Linear(in_features=3584, out_features=3584, bias=True)
          (k_proj): Linear(in_features=3584, out_features=512, bias=True)
          (v_proj): Linear(in_features=3584, out_features=512, bias=True)
          (o_proj): Linear(in_features=3584, out_features=3584, bias=False)
        )
        (mlp): Qwen2MLP(
          (gate_proj): Linear(in_features=3584, out_features=18944, bias=False)
          (up_proj): Linear(in_features=3584, out_features=18944, bias=False)
          (down_proj): Linear(in_features=18944, out_features=3584, bias=False)
          (act_fn): SiLU()
        )
        (input_layernorm): Qwen2RMSNorm((3584,), eps=1e-06)
        (post_attention_layernorm): Qwen2RMSNorm((3584,), eps=1e-06)
      )
    )
    (norm): Qwen2RMSNorm((3584,), eps=1e-06)
    (rotary_emb): Qwen2RotaryEmbedding()
    (vision_tower): CLIPVisionTower()
    (mm_projector): Sequential(
      (0): Linear(in_features=1024, out_features=3584, bias=True)
      (1): GELU(approximate='none')
      (2): Linear(in_features=3584, out_features=3584, bias=True)
    )
  )
  (lm_head): Linear(in_features=3584, out_features=152064, bias=False)
)
---image_processor--- CLIPImageProcessor {
  "crop_size": {
    "height": 336,
    "width": 336
  },
  "do_center_crop": true,
  "do_convert_rgb": true,
  "do_normalize": true,
  "do_rescale": true,
  "do_resize": true,
  "image_mean": [
    0.48145466,
    0.4578275,
    0.40821073
  ],
  "image_processor_type": "CLIPImageProcessor",
  "image_std": [
…
